…
WARNING:absl:At this time, the v2.11+ optimizer `tf.keras.optimizers.SGD` runs slowly on M1/M2 Macs, please use the legacy Keras optimizer instead, located at `tf.keras.optimizers.legacy.SGD`.
WARNING:absl:There is a known slowdown when using v2.11+ Keras optimizers on M1/M2 Macs. Falling back to the legacy Keras optimizer, i.e., `tf.keras.optimizers.legacy.SGD`.
Model: "sequential"
_________________________________________________________________
 Layer (type)                Output Shape              Param #   
=================================================================
 conv2d (Conv2D)             (None, 32, 32, 32)        896       
                                                                 
 conv2d_1 (Conv2D)           (None, 32, 32, 32)        9248      
                                                                 
 max_pooling2d (MaxPooling2  (None, 16, 16, 32)        0         
 D)                                                              
                                                                 
 dropout (Dropout)           (None, 16, 16, 32)        0         
                                                                 
 conv2d_2 (Conv2D)           (None, 16, 16, 64)        18496     
                                                                 
 conv2d_3 (Conv2D)           (None, 16, 16, 64)        36928     
                                                                 
 max_pooling2d_1 (MaxPoolin  (None, 8, 8, 64)          0         
 g2D)                                                            
                                                                 
 dropout_1 (Dropout)         (None, 8, 8, 64)          0         
                                                                 
 conv2d_4 (Conv2D)           (None, 8, 8, 128)         73856     
                                                                 
 conv2d_5 (Conv2D)           (None, 8, 8, 128)         147584    
                                                                 
 max_pooling2d_2 (MaxPoolin  (None, 4, 4, 128)         0         
 g2D)                                                            
                                                                 
 dropout_2 (Dropout)         (None, 4, 4, 128)         0         
                                                                 
 flatten (Flatten)           (None, 2048)              0         
                                                                 
 dense (Dense)               (None, 128)               262272    
                                                                 
 dropout_3 (Dropout)         (None, 128)               0         
                                                                 
 dense_1 (Dense)             (None, 10)                1290      
                                                                 
=================================================================
Total params: 550570 (2.10 MB)
Trainable params: 550570 (2.10 MB)
Non-trainable params: 0 (0.00 Byte)
_________________________________________________________________
None
Train: X=(50000, 32, 32, 3), y=(50000, 1)
Test: X=(10000, 32, 32, 3), y=(10000, 1)
/Users/dhvanishah/opt/miniconda3/envs/tf/lib/python3.10/site-packages/sklearn/preprocessing/_label.py:97: DataConversionWarning: A column-vector y was passed when a 1d array was expected. Please change the shape of y to (n_samples, ), for example using ravel().
…
